DrugBAN(
  (drug_extractor): MolecularGCN(
    (init_transform): Linear(in_features=75, out_features=128, bias=False)
    (gnn): GCN(
      (gnn_layers): ModuleList(
        (0): GCNLayer(
          (graph_conv): GraphConv(in=128, out=128, normalization=none, activation=<function relu at 0x7f526d8eeee0>)
          (dropout): Dropout(p=0.0, inplace=False)
          (res_connection): Linear(in_features=128, out_features=128, bias=True)
          (bn_layer): BatchNorm1d(128, eps=1e-05, momentum=0.1, affine=True, track_running_stats=True)
        )
        (1): GCNLayer(
          (graph_conv): GraphConv(in=128, out=128, normalization=none, activation=<function relu at 0x7f526d8eeee0>)
          (dropout): Dropout(p=0.0, inplace=False)
          (res_connection): Linear(in_features=128, out_features=128, bias=True)
          (bn_layer): BatchNorm1d(128, eps=1e-05, momentum=0.1, affine=True, track_running_stats=True)
        )
        (2): GCNLayer(
          (graph_conv): GraphConv(in=128, out=128, normalization=none, activation=<function relu at 0x7f526d8eeee0>)
          (dropout): Dropout(p=0.0, inplace=False)
          (res_connection): Linear(in_features=128, out_features=128, bias=True)
          (bn_layer): BatchNorm1d(128, eps=1e-05, momentum=0.1, affine=True, track_running_stats=True)
        )
      )
    )
  )
  (protein_extractor): ProteinCNN(
    (embedding): Embedding(26, 128, padding_idx=0)
    (conv1): Conv1d(128, 128, kernel_size=(3,), stride=(1,))
    (bn1): BatchNorm1d(128, eps=1e-05, momentum=0.1, affine=True, track_running_stats=True)
    (conv2): Conv1d(128, 128, kernel_size=(6,), stride=(1,))
    (bn2): BatchNorm1d(128, eps=1e-05, momentum=0.1, affine=True, track_running_stats=True)
    (conv3): Conv1d(128, 128, kernel_size=(9,), stride=(1,))
    (bn3): BatchNorm1d(128, eps=1e-05, momentum=0.1, affine=True, track_running_stats=True)
  )
  (bcn): BANLayer(
    (v_net): FCNet(
      (main): Sequential(
        (0): Dropout(p=0.2, inplace=False)
        (1): Linear(in_features=128, out_features=768, bias=True)
        (2): ReLU()
      )
    )
    (q_net): FCNet(
      (main): Sequential(
        (0): Dropout(p=0.2, inplace=False)
        (1): Linear(in_features=128, out_features=768, bias=True)
        (2): ReLU()
      )
    )
    (p_net): AvgPool1d(kernel_size=(3,), stride=(3,), padding=(0,))
    (bn): BatchNorm1d(256, eps=1e-05, momentum=0.1, affine=True, track_running_stats=True)
  )
  (mlp_classifier): MLPDecoder(
    (fc1): Linear(in_features=256, out_features=512, bias=True)
    (bn1): BatchNorm1d(512, eps=1e-05, momentum=0.1, affine=True, track_running_stats=True)
    (fc2): Linear(in_features=512, out_features=512, bias=True)
    (bn2): BatchNorm1d(512, eps=1e-05, momentum=0.1, affine=True, track_running_stats=True)
    (fc3): Linear(in_features=512, out_features=128, bias=True)
    (bn3): BatchNorm1d(128, eps=1e-05, momentum=0.1, affine=True, track_running_stats=True)
    (fc4): Linear(in_features=128, out_features=1, bias=True)
  )
)